bot_api/data_rnn.pth (torch, 50977 bytes, 6 tensors)

lstm.weight_ih_l0 f4 [32, 300]
0	0x3f5b0a80	0.85562897
1	0x3ecc4ca1	0.39902213
2	0xbdc6c184	-0.09704879
3	0x3f9a3cd9	1.2049819
4	0x3ef3f727	0.476495
5	0x3fba92da	1.4576066
6	0x3d48df21	0.049040917
7	0x3eca4b30	0.3951049
8	0x3e86f794	0.26360762
9	0x3ede4093	0.4340864
10	0x3fca79df	1.5818442
11	0x3e98204a	0.29712135
12	0x3f2cddde	0.6752604
13	0x3f008b4b	0.50212544
14	0x3ef430bb	0.47693428
15	0x3db7c33d	0.089727856
16	0x3df148be	0.117814526
17	0x3f57b99f	0.8426761
18	0x3e207b95	0.15672143
19	0x3f20dd7f	0.62837976
20	0x3e318c15	0.17338593
21	0x3d2cc07a	0.042175747
22	0x3f13e78e	0.577752
23	0xbe0308e1	-0.12796356
24	0x3e922747	0.2854559
25	0x3f501ba4	0.81292176
26	0xbdf8aa5a	-0.12141867
27	0xbd48f31f	-0.049059983
28	0x3f9bff61	1.218731
29	0x3f05ae50	0.52219105
30	0x3e35196d	0.1768548
31	0x3eff7f8b	0.49901995
32	0x3ee38bde	0.44442648
33	0x3f4260b6	0.7592882
34	0x3f3f0080	0.7461014
35	0x3f450a82	0.7696916
36	0x3e91f4b0	0.28506994
37	0x3ef2063a	0.47270375
38	0x3f2cc70b	0.67491215
39	0x3ee19dff	0.44065854
40	0x3fb765bd	1.4327923
41	0x3f1bfb64	0.60930467
42	0x3f5403cf	0.8281831
43	0x3ec13190	0.37733126
44	0x3f820f61	1.0160943
45	0x3f1cf0ce	0.6130494
46	0x3e5cc7ad	0.21560545
47	0x3e0230bb	0.12713902
48	0x3f03ada7	0.5143685
49	0x3e609d2e	0.2193496
50	0x3e256466	0.1615158
51	0xbe561243	-0.20905404
52	0x3e02e0ca	0.12781063
53	0x3d2afc86	0.04174473
54	0x3ea5abcb	0.3235763
55	0x3d7715bd	0.060323466
56	0x3ecf4d96	0.4048888
57	0x3f883038	1.0639715
58	0x4000f21d	2.0147774
59	0x3f473f7a	0.7783123
60	0xbdaa6833	-0.08320656
61	0x3e8a4f06	0.27013415
62	0x3d39174a	0.045188226
63	0xbe6e271f	-0.23257111
64	0xbb1c4f2a	-0.0023850896
65	0x3e2b6315	0.16737016
66	0x3f24b8e1	0.643446
67	0x3f1089e6	0.56460416
68	0x3ef6475e	0.48101324
69	0x3ee0571b	0.43816456
70	0x3f0aa0bb	0.54151505
71	0x3f355ac9	0.7084165
72	0x3eef36bb	0.46721444
73	0x3f17e30e	0.5933083
74	0xbd1e3054	-0.038620308
75	0x3fa48110	1.2851887
76	0x3fad21a9	1.3525897
77	0x3f13d8ef	0.5775289
78	0x3ec9884c	0.393618
79	0x3ebeb724	0.372491
80	0x3e41d4bf	0.18928812
81	0xbe2a98a0	-0.16659784
82	0x3e6c4efd	0.23077007
83	0x3eb2e4bc	0.34940135
84	0x3ec6f241	0.388567
85	0x3f1e4199	0.61818844
86	0x3e3ca355	0.18421681
87	0x3e81d072	0.25354344
88	0x3f8bf055	1.0932719
89	0x3ec02532	0.37528378
90	0x3f211a74	0.6293099
91	0x3e274da7	0.16338216
92	0x3fcfec57	1.6244
93	0x3efae7e6	0.4900505
94	0x3f452745	0.77013046
95	0x3f114f2d	0.5676144
96	0x3ef22a11	0.4729772
97	0x3f1340c2	0.5752069
98	0x3f80ac2e	1.0052545
99	0x3f99c019	1.2011749
100	0x3ee7e924	0.4529506
101	0x3e9d1ed2	0.30687577
102	0x3f09f523	0.53889674
103	0x3f838cb2	1.0277312
104	0x3f9b6747	1.2140893
105	0x3e82dc18	0.25558543
106	0x3fa4bda6	1.2870376
107	0x3ccd8471	0.025087567
108	0x3f93533c	1.1509776
109	0x3c9616b9	0.018321382
110	0x3f8178d4	1.0114999
111	0x3f6bd68d	0.92124254
112	0x3d6b3f50	0.057433426
113	0x3f30b83b	0.69031113
114	0x3fbe5a66	1.4871337
115	0x3f5416be	0.828472
116	0x3f583368	0.8445344
117	0x3ed0cbaf	0.40780398
118	0x3f4688ef	0.77552694
119	0x3ec2e088	0.3806193
120	0x3f500386	0.81255376
121	0x3ed1d149	0.40979984
122	0x3ea0d42d	0.31411877
123	0x3f4e99f5	0.8070367
124	0x3f17d9ca	0.59316695
125	0x3e60182b	0.2188422
126	0xbe32f3ee	-0.17475864
127	0x3ed889d0	0.42292643
128	0x3f0e1388	0.5549855
129	0x3ec6a66a	0.3879884
130	0x3f48eb80	0.78484344
131	0x3e49c512	0.19704083
132	0x3f4073b3	0.75176543
133	0x3f97229e	1.1807439
134	0x3f28b59b	0.6590211
135	0x3e93060c	0.2871555
136	0x3f9e4cc7	1.236718
137	0x3f94becb	1.1620725
138	0x3e6b7e8c	0.22997493
139	0x3f228dcb	0.6349761
140	0x3d836257	0.06415241
141	0x3ed71e85	0.42015472
142	0x3df49b79	0.119437166
143	0x3e974d19	0.29551008
144	0x3f5363f5	0.825744
145	0xbd203275	-0.03911062
146	0x3e465d57	0.19371544
147	0x3e8209f7	0.25398228
148	0xbd1d62f4	-0.038424447
149	0x3e9a281b	0.30108723
150	0x3f8f66b0	1.1203213
151	0x3f61aa57	0.8815054
152	0xbcfdc64c	-0.030978344
153	0xbd8d4944	-0.0689874
154	0x3dc0fb8e	0.0942298
155	0x3f7b425a	0.9814812
156	0x3e2d7fbd	0.1694326
157	0x3f01447a	0.5049511
158	0x3f0b0cf4	0.5431664
159	0x3f3c52e5	0.73563987
160	0x3bae1c1f	0.005313411
161	0x3d1c38c2	0.038140066
162	0x3d762bb0	0.060100257
163	0x3f76a9e1	0.96352965
164	0x3efde44a	0.49588233
165	0x3f9f7366	1.2457092
166	0x3e68d62a	0.22737947
167	0x3faa89fc	1.332336
168	0x3f390880	0.72278595
169	0x3f944d16	1.1586025
170	0x3e9d55e2	0.30729586
171	0x3ec31613	0.3810278
172	0x3da8e43c	0.08246657
173	0x3fa4b7b6	1.2868564
174	0x3da58bb9	0.080832906
175	0x3e920ed7	0.28526947
176	0x3fb6e250	1.4287815
177	0x3f228cd1	0.6349612
178	0xbca686c1	-0.020327928
179	0x3f013829	0.5047632
180	0x3f35adba	0.7096821
181	0x3f775496	0.9661344
182	0x3f0f49fc	0.55972266
183	0x3e71353e	0.23555467
184	0x4007b42f	2.1203725
185	0x3f20acf8	0.6276393
186	0x3f304173	0.6884987
187	0x3eee0126	0.4648525
188	0x3e99e390	0.3005643
189	0x3e86c3f5	0.26321378
190	0x3d9dea3c	0.07710692
191	0x3f7ea5a4	0.994715
192	0x3de5e1a0	0.11224675
193	0x3f45206f	0.77002615
194	0x3ec8f8f4	0.39252436
195	0x3f53aa6b	0.8268191
196	0x3e744963	0.2385612
197	0x3ded816a	0.115969494
198	0xbdf1df8a	-0.11810215
199	0x3d1a78c9	0.037712846
200	0x3f035415	0.51300174
201	0xbd4ca515	-0.049962122
202	0x3eaa61b8	0.33277678
203	0x3e986ae5	0.29769054
204	0x3f112c5b	0.56708306
205	0x3edd16fb	0.43181595
206	0x3d8886e9	0.06666357
207	0xbcb25224	-0.021767683
208	0x3fc04a96	1.5022762
209	0x3ecde73f	0.4021549
210	0x3e5e74ab	0.21724193
211	0x3f614504	0.87995934
212	0x3f456a37	0.77115196
213	0x3e7a048b	0.24415796
214	0x3e7e7436	0.24849018
215	0x3f59d998	0.85097647
216	0x3f0b9d80	0.545372
217	0x3ee26469	0.44217232
218	0x3f25199d	0.6449221
219	0xb9f17d96	-0.0004606067
220	0x3f2b5473	0.66925734
221	0x3f73db40	0.95256424
222	0x3f2eb347	0.68242306
223	0x3e9891b2	0.29798657
224	0x3f86149a	1.0475037
225	0x3f7b3e14	0.981416
226	0x3e83f8f0	0.25775862
227	0x3f6f18cd	0.9339722
228	0xbdca01f0	-0.09863651
229	0xbe07c505	-0.1325875
230	0xbe2801f2	-0.16406992
231	0x3fcdcad2	1.6077521
232	0x3f3925b8	0.7232318
233	0xbe7d2a14	-0.24723083
234	0x3e39c41f	0.1814122
235	0xbe84c298	-0.25929713
236	0x3f40eac6	0.75358236
237	0xbdcb2add	-0.09920285
238	0x3e9b1ec5	0.30296913
239	0x3f3d0d8d	0.738488
240	0xbe279d96	-0.16368708
241	0x3ebc85f0	0.36820936
242	0x3f18f3b5	0.5974687
243	0x3e2b8ee6	0.1675373
244	0x3faa3d73	1.3300003
245	0x3e24142f	0.16023324
246	0x3ea20b7b	0.31649384
247	0x3f341b2a	0.7035395
248	0x3e067429	0.13130249
249	0xbdfb8ddb	-0.12282916
250	0x3f0cd6d2	0.5501529
251	0x3f8b83d9	1.0899612
252	0x3f8dac97	1.1068295
253	0x3e031015	0.12799104
254	0x3ea483d5	0.3213183
255	0x3f0ee8e4	0.5582411

lstm.weight_hh_l0 f4 [32, 8]
0	0x3e25833e	0.16163346
1	0x3d4f6c18	0.050640196
2	0x3eac8253	0.3369318
3	0x3e98f885	0.29877105
4	0xbea489f7	-0.3213651
5	0xbda5ff60	-0.081053495
6	0x3e3e6066	0.1859146
7	0x3d67b3a8	0.056567818
8	0x3b675a80	0.0035301745
9	0xbea7b708	-0.3275683
10	0x3e8adf8f	0.27123687
11	0x3e2033e6	0.15644798
12	0xbca3b310	-0.019982845
13	0xbe8dfd22	-0.27732188
14	0x3e0063a8	0.12538016
15	0xbe9749eb	-0.29548582
16	0xbe6fa3f7	-0.23402391
17	0xbd29cea0	-0.04145682
18	0x3e8dfa95	0.2773024
19	0xbe88e4e8	-0.26737142
20	0xbe98cb70	-0.2984271
21	0xbe275e8f	-0.16344665
22	0xbe1263f1	-0.14295937
23	0xbc3399a0	-0.01096192
24	0xbeaf5bc6	-0.34249705
25	0x3e284ad6	0.16434798
26	0x3d5c17d8	0.053733677
27	0xbe36b34a	-0.17841831
28	0x3df5b28c	0.11996946
29	0xbea99047	-0.33117887
30	0x3e3780e6	0.17920265
31	0x3e796caa	0.24357858
32	0xbd7b9ff0	-0.061431825
33	0xbe9fdcb9	-0.31223086
34	0x3e074fa6	0.13213977
35	0xbb554f80	-0.0032548606
36	0x3d4d0b00	0.05005932
37	0x3db681a8	0.08911449
38	0xbe5d4b68	-0.21610796
39	0xbe867cef	-0.26267192
40	0x3e96a17f	0.29420087
41	0x3e807185	0.2508661
42	0xbe371c0d	-0.17881794
43	0x3eac2647	0.33622953
44	0xbd86b220	-0.065769434
45	0x3ea502db	0.3222874
46	0xbe7ae7b6	-0.24502453
47	0xbe29f5b2	-0.16597632
48	0xbea7212d	-0.326425
49	0x3e3c079e	0.1836228
50	0xbd03c6f8	-0.032172173
51	0x3e06f410	0.1317904
52	0xbe95b593	-0.29240093
53	0x3e3e0ff2	0.1856077
54	0x3e7b715a	0.24554959
55	0xbb08d700	-0.0020880103
56	0x3e02dc44	0.12779337
57	0x3b9b4400	0.004738331
58	0x3e581756	0.21102652
59	0xbdbc547c	-0.091958016
60	0x3e973dc7	0.2953932
61	0xbe18469f	-0.1487069
62	0xbe83d6bb	-0.25749764
63	0x3e31b352	0.17353562
64	0x3eb32fb9	0.34997347
65	0xbd00c628	-0.031438977
66	0x3e54af7e	0.2077007
67	0x3e0d1ac2	0.13779739
68	0xbd257008	-0.040390044
69	0x3e80692b	0.25080237
70	0xbde2137e	-0.11038874
71	0x3e893381	0.26797107
72	0x3e1fc94a	0.1560413
73	0xbd058468	-0.032596976
74	0x3e9cf3fb	0.30654892
75	0xbe1c1793	-0.15243368
76	0x3e2481da	0.1606516
77	0xbe011efd	-0.12609477
78	0xbea08740	-0.31353188
79	0x3e616dfe	0.22014615
80	0x3e26a7fa	0.16275015
81	0x3e9e8cf9	0.3096693
82	0xbdfd790c	-0.123766035
83	0x3e3ee21a	0.18640938
84	0xbe4442bb	-0.1916608
85	0xbdac6d94	-0.08419338
86	0xbd584a88	-0.052805454
87	0x3e0980b6	0.13428006
88	0x3e32e64e	0.17470667
89	0xbeb1f4f3	-0.34757194
90	0xbe640607	-0.22267924
91	0x3c03b0c0	0.008037746
92	0xbe08c919	-0.13357963
93	0xbe78a571	-0.24281861
94	0x3e0919b6	0.13388714
95	0xbe7b9f0a	-0.24572387
96	0xbe4bfdc5	-0.19921024
97	0xbc11fc00	-0.008910179
98	0x3e14eef2	0.14544275
99	0x3de0f7dc	0.109847754
100	0x3e430f5a	0.19048825
101	0x3e18309e	0.14862296
102	0xbe5a7031	-0.2133186
103	0x3e9e8659	0.30961874
104	0x3df7a65c	0.120922774
105	0xbea1cce4	-0.31601632
106	0xbe6f7e34	-0.23387986
107	0xbdcf5408	-0.101234496
108	0xbe85ab47	-0.26107237
109	0x3e84c393	0.2593046
110	0x3e1dafaa	0.15399042
111	0xbd51cfa8	-0.051223427
112	0x3db68e10	0.08913815
113	0xbe328f07	-0.17437373
114	0xbe9aaca3	-0.30209836
115	0xbd2e9008	-0.042617828
116	0xbea6ed94	-0.32603133
117	0xbe836c72	-0.25668675
118	0xbc9d24a0	-0.019182503
119	0xbd865458	-0.06559056
120	0xbda19da8	-0.07891399
121	0x3d9ee988	0.07759386
122	0x3e15ec30	0.1464088
123	0x3e127294	0.1430152
124	0xbea0b477	-0.31387684
125	0xbea7ab0a	-0.3274768
126	0xbc2b90c0	-0.010471523
127	0xbe11d5d3	-0.14241724
128	0x3e5d32ce	0.21601412
129	0xbe1e51f5	-0.15460952
130	0x3cb58310	0.022157222
131	0xbe4e2b88	-0.20133793
132	0x3d7cab70	0.061686933
133	0xbe9636dc	-0.2933873
134	0xbdedb8dc	-0.11607525
135	0xbe8f251b	-0.27957997
136	0xbd9f1c94	-0.07769123
137	0x3c907990	0.01763609
138	0xbeadf56d	-0.33976308
139	0x3e8848b9	0.26617983
140	0xbe69b1b5	-0.22821696
141	0x3e5867fa	0.21133414
142	0xbe0c4b1a	-0.13700524
143	0x3d96b0a8	0.07357913
144	0x3e114b60	0.1418891
145	0xbe20c9d6	-0.15701994
146	0xbdf7a490	-0.12091935
147	0xbe6946a0	-0.22780848
148	0x3ea1d2c9	0.3160613
149	0xbe1432a7	-0.14472447
150	0x3e7b8722	0.24563268
151	0x3ea4dcc3	0.32199678
152	0xbc9c1a60	-0.019055545
153	0x3d2c3aa8	0.042048126
154	0x3e27d5f6	0.16390213
155	0xbea2986e	-0.3175692
156	0x3e55045a	0.20802441
157	0xbdc71d34	-0.09722367
158	0x3ea78a29	0.32722595
159	0xbe7cf7b8	-0.24703872
160	0x3e949f87	0.2902796
161	0xbdc40360	-0.09570956
162	0xbe73a1e0	-0.23792219
163	0xbcb27000	-0.021781921
164	0x3eaffac5	0.3437101
165	0xbe974eee	-0.29552406
166	0x3d3aef40	0.045638323
167	0x3d680120	0.056641698
168	0x3de96210	0.11395657
169	0xbdace450	-0.08441985
170	0x3e8b5e27	0.2722027
171	0x3d1feb30	0.03904265
172	0x3d4ae1a0	0.04953158
173	0xbe1c2d55	-0.15251668
174	0xbe4e9673	-0.2017458
175	0xbdcd0658	-0.100109756
176	0xbe99a44a	-0.30008155
177	0xbe6a356e	-0.22871944
178	0x3dfa261c	0.122143
179	0x3e768706	0.24074945
180	0xbe3120e4	-0.17297703
181	0x3d897800	0.06712341
182	0x3e98ddff	0.2985687
183	0x3e32d772	0.17464998
184	0xbe94fd6a	-0.2909959
185	0xbdf1c760	-0.11805606
186	0x3cae8a70	0.021306247
187	0x3e665ae6	0.22495613
188	0x3e9c1e47	0.3049185
189	0x3d9219a8	0.071338
190	0x3bf44e80	0.007455647
191	0xbe408582	-0.18800929
192	0x3e81a4f1	0.25321153
193	0xbe8c2f20	-0.27379704
194	0xbddb1438	-0.10697216
195	0xbead87a0	-0.33892536
196	0x3dad5048	0.08462578
197	0xbea177c0	-0.31536674
198	0xbe1b5462	-0.15168908
199	0x3dc341c8	0.09534031
200	0x3dc9e1f8	0.09857553
201	0xbde62758	-0.11237973
202	0x3a478a00	0.0007611811
203	0xbe721ed9	-0.2364458
204	0xbd4f3fa0	-0.050597787
205	0x3d9c5204	0.07632831
206	0xbe4eba72	-0.2018831
207	0x3e54ffc2	0.20800689
208	0xbe8d1944	-0.2755834
209	0xbd91ddb8	-0.071223676
210	0xbdf6a958	-0.120440185
211	0xbe6d99f4	-0.2320326
212	0x3e179176	0.14801583
213	0xbe39e34d	-0.18153115
214	0x3d67b288	0.056566745
215	0xbe63a1a4	-0.2222963
216	0xbe376d23	-0.17912726
217	0xbe94d8fa	-0.2907179
218	0x3e4b0506	0.19826135
219	0xbe3ea2da	-0.1861681
220	0xbe92efe4	-0.28698647
221	0x3e9b3fcb	0.30322108
222	0x3ea10ef1	0.31456712
223	0xbe698fb9	-0.22808732
224	0xbe51c9be	-0.20487115
225	0xbe8853d8	-0.26626468
226	0xbe63a55d	-0.2223105
227	0x3e876dc3	0.2645093
228	0xbe3c452f	-0.18385766
229	0xbe7fe941	-0.24991323
230	0xbe67a5ee	-0.22621891
231	0x3e73aa2e	0.23795387
232	0xbdd9320a	-0.10605247
233	0xbc379740	-0.011205494
234	0x3dd083ac	0.101813644
235	0xbe4547da	-0.1926569
236	0xbe764154	-0.24048358
237	0xbbbb7700	-0.005720973
238	0x3e11e2fe	0.14246747
239	0x3e97d34d	0.29653397
240	0xbe8cbb5f	-0.27486703
241	0x3dcf0028	0.10107452
242	0x3e3be212	0.18347958
243	0xbe99a2dc	-0.30007064
244	0x3bfa5800	0.007639885
245	0xbe961942	-0.29316145
246	0x3e027244	0.12738901
247	0xbe2f8a4b	-0.17142598
248	0xbd9f3410	-0.07773602
249	0x3e4581c6	0.19287786
250	0x3e6c9992	0.23105457
251	0x3da0f778	0.07859701
252	0xbde235f2	-0.110454455
253	0x3e64cef6	0.22344574
254	0xbd9f6c84	-0.077843696
255	0xbd5f1198	-0.054460138

lstm.bias_ih_l0 f4 [32]
0	0x40d8fff1	6.781243
1	0x40db254e	6.848304
2	0x40db93a2	6.8617716
3	0x40cdda47	6.432895
4	0x40b0e49b	5.527906
5	0x40d36ae7	6.6067996
6	0x40b9f827	5.811542
7	0x40d9cd2a	6.8062944
8	0xbe546a7d	-0.20743747
9	0xbeaa3061	-0.33240035
10	0xbe83b1d0	-0.25721598
11	0xbe842dde	-0.25816244
12	0xbdf8bcbc	-0.12145373
13	0xbe0f72e2	-0.14008668
14	0x3e412c92	0.18864658
15	0xbe45140c	-0.19245929
16	0xbe796ba3	-0.24357466
17	0xbf2ca4e8	-0.67439127
18	0x3fabdb53	1.3426307
19	0xbdd37007	-0.10324102
20	0x3eb6d3b3	0.3570839
21	0x3eb6533b	0.35610375
22	0xbe4c2862	-0.1993728
23	0x3f9aa646	1.2081993
24	0x40df7841	6.9834294
25	0x40db9514	6.861948
26	0x40e0eb9e	7.028762
27	0x40d41027	6.6269717
28	0x4062ccfa	3.5437608
29	0x40e20471	7.063042
30	0x40c9c5ba	6.3053865
31	0x40e7c0b2	7.2422724

lstm.bias_hh_l0 f4 [32]
0	0x40d2de44	6.589632
1	0x40dad506	6.838504
2	0x40d82cd3	6.7554717
3	0x40c89312	6.267953
4	0x40b69341	5.7054753
5	0x40dc6ebc	6.8885174
6	0x40b684f0	5.7037277
7	0x40e12a97	7.036449
8	0x3df72a38	0.120685995
9	0x3eb17c5d	0.34665194
10	0x3de10654	0.10987535
11	0xbe6815df	-0.22664593
12	0x3eb27c7f	0.34860608
13	0x3e8db029	0.27673462
14	0x3da5c788	0.08094698
15	0xbe2ed9f2	-0.17075327
16	0xbe5490c1	-0.20758344
17	0xbe88298d	-0.265942
18	0x3f817f77	1.0117024
19	0xbee783a1	-0.45217612
20	0x3e9a69b3	0.30158767
21	0x3e8dbd47	0.2768347
22	0xbe06709c	-0.13128895
23	0x3f825ae2	1.0183985
24	0x40d463e0	6.637192
25	0x40e1a2ae	7.0511084
26	0x40d9d48c	6.8071957
27	0x40d10d42	6.5328684
28	0x40511cd2	3.267384
29	0x40dd98bd	6.924895
30	0x40c0051c	6.0006237
31	0x40ddbe1e	6.9294577

fc.weight f4 [72, 8]
0	0x40903e72	4.5076227
1	0x40e14b94	7.040476
2	0xc0cb9180	-6.361511
3	0xc105a1a0	-8.351959
4	0xc0b059d1	-5.510964
5	0x40a69044	5.2051105
6	0xc0e75473	-7.2290587
7	0x409d908d	4.9238954
8	0xc0f47cb4	-7.6402225
9	0xc0dbedd3	-6.8727813
10	0x40c59710	6.1746902
11	0xc0a1f927	-5.061664
12	0x404ce08e	3.2012057
13	0x40e4e3bd	7.1528
14	0x40f60442	7.6880198
15	0x40bcc9b0	5.89962
16	0xc137c534	-11.485645
17	0xc06cbdec	-3.699092
18	0xc05a56b4	-3.411542
19	0xc0cf0ed1	-6.4705586
20	0x40c58fa9	6.1737866
21	0x40ac46e7	5.383655
22	0xc0c33dc9	-6.101292
23	0x40d85f6e	6.761649
24	0xc134cb47	-11.299628
25	0x40bbf240	5.8733215
26	0x411245bc	9.142025
27	0x409929f8	4.786373
28	0x41397583	11.591189
29	0x4095d166	4.6818113
30	0x40b780f6	5.7344923
31	0x4067bebf	3.6210172
32	0x40457506	3.0852675
33	0xc097a6f0	-4.739128
34	0xc1038f3b	-8.222468
35	0x40c31b10	6.0970535
36	0x41077c00	8.467773
37	0xc0fa1249	-7.814732
38	0x40e44c29	7.134297
39	0xc0c0e1c5	-6.0275598
40	0xc1064b82	-8.393435
41	0xc0cd5d16	-6.417613
42	0xc0b41ef1	-5.628777
43	0xc072dd1c	-3.7947454
44	0x4092ed6b	4.5914817
45	0xc0830838	-4.0947533
46	0xc0527bd5	-3.288808
47	0xc0cc6dfe	-6.388427
48	0x400ff09a	2.2490602
49	0xc0b41d03	-5.6285415
50	0xc14d630c	-12.836681
51	0x408fca3b	4.4934363
52	0xc08af1d1	-4.3420186
53	0xc11d269a	-9.821924
54	0x408738d7	4.2256885
55	0x40b915c9	5.7839093
56	0xc0e2a7a8	-7.082966
57	0xc0767935	-3.851148
58	0x4111b58d	9.106824
59	0x40dcead3	6.903665
60	0x4102f8f3	8.185779
61	0xc0b275c6	-5.5768766
62	0xc07ff07b	-3.9990528
63	0xc0a7e4bf	-5.246673
64	0x3fbca543	1.4737934
65	0xc0b39254	-5.6116123
66	0x408734bf	4.2251887
67	0xc0abc9ce	-5.3683844
68	0xc019c04e	-2.4023623
69	0xc0ba2fd3	-5.818338
70	0x4025816e	2.5860248
71	0x411bdb0e	9.74098
72	0xc0f299af	-7.58126
73	0x404b4dae	3.1766162
74	0x40cb5f6f	6.3553996
75	0xc0a08f5c	-5.0175
76	0xc0dbc8d8	-6.868267
77	0x4134d7ef	11.302718
78	0x408c3438	4.3813744
79	0xc0dfec78	-6.997616
80	0xc0686353	-3.6310623
81	0xc0f46fe7	-7.63866
82	0xc0a62712	-5.1922693
83	0x40de5753	6.9481597
84	0x40e978e3	7.2960067
85	0xc1040fcc	-8.253857
86	0xc0ab4378	-5.351986
87	0x41018da8	8.097084
88	0x409d0d71	4.907891
89	0xc03cb443	-2.9485023
90	0x405c2ec5	3.4403546
91	0xc0f4ee3c	-7.6540813
92	0xc079668e	-3.8968844
93	0xbed58c68	-0.41708684
94	0x40111e70	2.2674828
95	0xc133639a	-11.211817
96	0x40673d78	3.6131268
97	0x412daab0	10.854172
98	0x40b58038	5.6719017
99	0xc0d16c68	-6.544483
100	0xc047481c	-3.1137762
101	0x4084bdd4	4.1481724
102	0x40d06717	6.512584
103	0x408b172b	4.346578
104	0xc030ae34	-2.7606325
105	0xc0d98105	-6.7969995
106	0x40d30cbd	6.595305
107	0xc0818482	-4.0474253
108	0x413b72f3	11.715564
109	0xc09b39f0	-4.8508224
110	0x40d698c1	6.7061467
111	0xc06dc37b	-3.7150562
112	0xc0ce7809	-6.4521527
113	0xc0bf0d38	-5.9703636
114	0x40dde9e6	6.934802
115	0xc0dfc017	-6.9921985
116	0x40a9ca6f	5.305961
117	0x411b3fea	9.703104
118	0xc0ab60b2	-5.3555536
119	0xc0f4e00e	-7.6523504
120	0x409ca37a	4.8949556
121	0x40d35452	6.604043
122	0xc0d49576	-6.6432447
123	0x40bdd55d	5.9322953
124	0xc0e83a56	-7.257121
125	0x40c85ba8	6.2611885
126	0x40944f54	4.6346836
127	0x40654ec3	3.5829322
128	0xc06efdcb	-3.7342403
129	0x40b57b11	5.6712728
130	0xc124abe8	-10.291969
131	0xc0a70651	-5.219521
132	0x406d4e9a	3.7079225
133	0xc0cb2db5	-6.3493295
134	0x40e1f21a	7.0608034
135	0xc0a2619e	-5.074416
136	0x40f1b5ef	7.5534587
137	0x40b97b8b	5.796331
138	0xc0b1c2db	-5.555036
139	0xc0c7a40d	-6.2387757
140	0x40fe3a1e	7.9445944
141	0xc0eb70e2	-7.3575296
142	0x404419dc	3.0640783
143	0x40c2ba5c	6.085249
144	0xc09c9ba1	-4.8939977
145	0x40d980de	6.796981
146	0xc115ba44	-9.357975
147	0x40d19424	6.5493336
148	0x406aae21	3.666878
149	0xc14316b6	-12.193045
150	0xc0ab07ff	-5.344726
151	0xc06ca001	-3.6972659
152	0xc0984053	-4.757852
153	0x40555d6b	3.3338268
154	0xc0acb4eb	-5.3970847
155	0x40e34dbf	7.1032405
156	0x40c558c9	6.167088
157	0x40a37a3d	5.1086717
158	0x41586a37	13.525931
159	0xc0ce5980	-6.4484253
160	0x3f9eb8f6	1.2400196
161	0x411b10ad	9.691571
162	0x3fd1efe2	1.6401331
163	0x40c5b01a	6.177747
164	0xc0a0334c	-5.006262
165	0xc12d969c	-10.84927
166	0x409368fd	4.606566
167	0x40feeff1	7.9667897
168	0x40889976	4.268733
169	0x40e87501	7.2642827
170	0x40c390fc	6.1114483
171	0x40ac2ed8	5.380718
172	0x410f8972	8.971056
173	0xc0c25aed	-6.0735993
174	0x413c8eb1	11.784837
175	0xc0d016ea	-6.502797
176	0x40663a37	3.5973032
177	0x40a01d0d	5.003546
178	0x40c2a4dd	6.082625
179	0xbf2d7597	-0.6775755
180	0xc0b71fdc	-5.722639
181	0x4107b40f	8.48146
182	0xc1226940	-10.150696
183	0xc103f6a5	-8.247716
184	0xc10ba7b8	-8.728447
185	0xc0bc8fd7	-5.8925586
186	0x40c88054	6.265665
187	0xc0d00da1	-6.5016637
188	0xc0d7c629	-6.7429395
189	0xc0b71a08	-5.7219276
190	0xc0d31f91	-6.5976033
191	0xc095a0fd	-4.675902
192	0xc102023b	-8.125545
193	0x4136c7bf	11.423766
194	0xbfb9367e	-1.4469755
195	0x4056a91f	3.3540723
196	0xc0106144	-2.2559366
197	0x40437331	3.0539057
198	0xc0d2a5ab	-6.582723
199	0x40ff6d43	7.9820876
200	0xc105baa7	-8.358069
201	0x40b8b46b	5.7720237
202	0xc0a1c0ba	-5.054776
203	0xc0c6269d	-6.1922135
204	0xc12d9cd1	-10.850785
205	0x40738e06	3.8055434
206	0x409ab3d0	4.83445
207	0x408bca78	4.3684654
208	0xc0728cfa	-3.7898545
209	0xc0979a6f	-4.7376018
210	0x40fc97be	7.893523
211	0x40a2eec1	5.091645
212	0x40cbc117	6.3673205
213	0x40aa8506	5.328738
214	0xc09d45aa	-4.914754
215	0x40d7d8c7	6.745212
216	0xc1064239	-8.391168
217	0xc0c91d49	-6.284825
218	0xc10cbb0a	-8.795664
219	0xc093c837	-4.6181903
220	0xc0fc351b	-7.8814826
221	0xbf29ca0b	-0.6632392
222	0x40bceb53	5.903726
223	0xc0b5b65f	-5.678512
224	0xc10ee953	-8.931964
225	0xc0b72b67	-5.724048
226	0xc0baed73	-5.8414855
227	0x40ed1070	7.4082565
228	0xc0543446	-3.3156905
229	0x4050aad6	3.260427
230	0x4170b5a0	15.044342
231	0x408d141d	4.408705
232	0xc0d8839a	-6.7660646
233	0xc074ce1e	-3.8250804
234	0x41109f39	9.038873
235	0x40bd8a26	5.923114
236	0xc0d1ded5	-6.558451
237	0xc0eb4ccc	-7.3531246
238	0xc0d040a7	-6.507892
239	0x41176f5a	9.464685
240	0xc0c3a4fd	-6.11389
241	0xc0d4fe95	-6.656077
242	0xc0b8c006	-5.7734404
243	0xc08f4006	-4.4765654
244	0x40c76aa3	6.231767
245	0xc0c8eace	-6.2786627
246	0x41029f22	8.163851
247	0x40e0f5b2	7.029992
248	0x402f371e	2.737739
249	0x410c7e23	8.780795
250	0x40cfce54	6.4939365
251	0x40cffd16	6.4996443
252	0xc08ca0de	-4.394637
253	0x40bb43dc	5.8520336
254	0x40f5fb69	7.6869397
255	0xc0ec80ed	-7.390738

fc.bias f4 [72]
0	0xc07e28fa	-3.971251
1	0xc0638119	-3.5547545
2	0xc09c5997	-4.8859363
3	0xc0a64f16	-5.197154
4	0xc001a2d1	-2.0255625
5	0xbe9c56b3	-0.30534896
6	0xc03798c3	-2.8686988
7	0xc03afbde	-2.9216228
8	0xbfc06cbe	-1.5033185
9	0xc06402e2	-3.562676
10	0xc09e64c2	-4.9497995
11	0xbfb185e6	-1.3868988
12	0xc0168115	-2.3516285
13	0xbfe27208	-1.769105
14	0xc0bae101	-5.8399663
15	0xc042377e	-3.034637
16	0xbfe20d71	-1.7660352
17	0xbf98abb2	-1.1927397
18	0xc0b9cbc6	-5.8061247
19	0xc0493040	-3.14357
20	0xc042d206	-3.0440688
21	0xc0b22753	-5.5673003
22	0xc03dd3c7	-2.9660509
23	0xc05af27d	-3.4210503
24	0xbfeb3884	-1.8376622
25	0xc03955b6	-2.8958564
26	0x3e744adf	0.23856686
27	0xbff49481	-1.910782
28	0xc082c039	-4.0859647
29	0xc09d72ba	-4.9202547
30	0xc02391d1	-2.555775
31	0xc041ce63	-3.0282218
32	0xc092fc9d	-4.5933366
33	0xc0559a99	-3.337561
34	0xc08ce2fe	-4.402709
35	0xc042ffd1	-3.0468638
36	0xbfa7fc0c	-1.3123794
37	0xc06770a9	-3.6162512
38	0xc037986e	-2.8686786
39	0xc0556d91	-3.3348124
40	0xc02d4829	-2.7075293
41	0xc0a1e673	-5.059381
42	0xc082bdd7	-4.085674
43	0xc0906474	-4.5122623
44	0xc00b8c50	-2.180439
45	0xc0491b2a	-3.142283
46	0xc055f9d8	-3.3433743
47	0xc07cfded	-3.9529984
48	0xc05b2c7b	-3.4245899
49	0xbf9da36a	-1.2315495
50	0xc08ed036	-4.4629164
51	0xc035ca2a	-2.840464
52	0xc07315f1	-3.7982142
53	0xc0523bb1	-3.2848933
54	0xc0035a78	-2.0523968
55	0xc034c26f	-2.8243673
56	0xc0a8dd88	-5.2770424
57	0xc00047e8	-2.0043888
58	0xc0b38825	-5.610369
59	0xc0834861	-4.1025853
60	0xc094d255	-4.6506753
61	0xc089d72f	-4.3075175
62	0xc0136cd8	-2.3035183
63	0xc068dd73	-3.6385162
64	0xc092fd08	-4.5933876
65	0xbff67452	-1.9254248
66	0xc03bbde3	-2.9334648
67	0xc06ecbee	-3.7311969
68	0xc0673008	-3.6123066
69	0xc08fca64	-4.493456
70	0xc08a6f69	-4.3261
71	0xc0a7c267	-5.2424808
